ezkl_workspace/rwkv_simple/model.onnx (onnx, 5935 bytes, 4 tensors)

linear1.weight f4 [16, 10]
0	0xbdff5855	-0.1246802
1	0x3e3535f8	0.17696369
2	0x3e8214ca	0.25406486
3	0x3e9f86b8	0.3115747
4	0xbe553a42	-0.20823005
5	0xbda2c166	-0.07947044
6	0x3e337471	0.17524888
7	0xbd4e43ac	-0.050357506
8	0xbd79e337	-0.061007705
9	0x3e27ed42	0.163991
10	0x3e508666	0.20363769
11	0xbd06f2bd	-0.032946337
12	0x3e5b7187	0.21430026
13	0xbddb27a1	-0.10700918
14	0x3e286c99	0.16447677
15	0xbea0a7b4	-0.31377947
16	0x3e8b5489	0.27212933
17	0x3d521cc3	0.05129696
18	0xbd40e2b0	-0.047091186
19	0xbe2001ee	-0.15625736
20	0xbdf9165c	-0.12162468
21	0x3d962174	0.073305994
22	0xbe4fa032	-0.20275953
23	0x3e3a54aa	0.1819636
24	0xbdeb6fb5	-0.11495916
25	0x3e960c81	0.29306415
26	0x3e002fef	0.12518285
27	0x3e9fd198	0.31214595
28	0x3dd2f7bb	0.10301157
29	0x3e84801f	0.25879
30	0x3e9a6c88	0.30160928
31	0xbe125626	-0.14290676
32	0x3e866656	0.2624995
33	0xbc723ce6	-0.014785027
34	0x3d031ea1	0.032011632
35	0xbe47a3a5	-0.19496019
36	0xbdb8c323	-0.090215944
37	0xbe1ca95c	-0.1529898
38	0xbd9c5a31	-0.0763439
39	0xbdd23f87	-0.10266023
40	0x3dae75f4	0.085185915
41	0xbd0ff164	-0.035142317
42	0x3e817c97	0.25290367
43	0xbe650ea8	-0.22368872
44	0xbe3c13a7	-0.18366872
45	0x3e66574c	0.22494239
46	0x3d173f53	0.036925625
47	0xbde1eb04	-0.11031154
48	0x3e5e4e6f	0.21709608
49	0xbe689a7d	-0.22715183
50	0xbc0e7b4b	-0.0086963875
51	0x3ca77e82	0.020446066
52	0x3e857de9	0.26072624
53	0x3e869c39	0.26291063
54	0x3e99d5d2	0.30045944
55	0xbe48da21	-0.1961446
56	0xbd8a146a	-0.06742175
57	0xbe0df941	-0.13864614
58	0xbcdd6e33	-0.027030086
59	0x3d1fc1b2	0.03900308
60	0xbc55332c	-0.013012689
61	0xbdff6746	-0.1247087
62	0xbb2d1f52	-0.0026416373
63	0x3e1bc175	0.15210517
64	0xbdb170ea	-0.08664115
65	0x3d85b826	0.06529264
66	0x3dbf51a7	0.09341746
67	0x3d848d60	0.06472278
68	0xbd3e794b	-0.046502393
69	0x3e50d489	0.20393576
70	0x3e060c5b	0.1309065
71	0x3e4176ee	0.18893024
72	0x3cfba901	0.030720236
73	0xbdb6c0c0	-0.08923483
74	0xbe87a461	-0.264926
75	0x3dfc3b00	0.12315941
76	0xbe8409bd	-0.2578868
77	0xbddfb1ec	-0.10922608
78	0xbdf08d44	-0.11745694
79	0x3e0b7e98	0.1362251
80	0x3dd1448a	0.10218151
81	0xbe71d5ba	-0.23616686
82	0x3e38ff7f	0.18066214
83	0xbe3b7960	-0.1830802
84	0x3dc9aa65	0.09846953
85	0x3a3e3d9b	0.0007257105
86	0x3d6b96c3	0.057516824
87	0xbe6b6525	-0.22987802
88	0xbd2f6f2e	-0.04283064
89	0x3d764bdd	0.060130943
90	0x3dbeceb2	0.09316768
91	0x3e8433cc	0.25820768
92	0xbcdf0b09	-0.027226942
93	0x3e2d182d	0.16903754
94	0x3d6e0e81	0.0581193
95	0xbe3e0d31	-0.1855972
96	0xbe781447	-0.24226485
97	0xbe9fa771	-0.31182435
98	0xbd786e1b	-0.06065188
99	0xbe968d4c	-0.29404676
100	0x3e883adf	0.26607415
101	0x3dc2849a	0.09497948
102	0x3dff7ddd	0.124751784
103	0x3da50ef2	0.08059491
104	0x3e933d97	0.28757927
105	0x3e907175	0.2821156
106	0xbce13bf1	-0.027494403
107	0x3e12ef52	0.14349106
108	0x3e842d1a	0.2581566
109	0xbe597e1b	-0.21239512
110	0x3d1714ac	0.03688495
111	0x3d31857d	0.043340195
112	0xbe44888f	-0.19192718
113	0xbdbeaec1	-0.093106754
114	0xbc469540	-0.012120545
115	0xbe0a1289	-0.13483633
116	0xbe1cd1c2	-0.15314391
117	0xbd9c3e9f	-0.076291315
118	0xbdb0995d	-0.08623002
119	0x3c0d73e0	0.008633584
120	0x3dcbf32e	0.09958492
121	0x3e81cae8	0.25350118
122	0x3d984b30	0.07436216
123	0xbd903cbb	-0.070428334
124	0xbe9e0e0b	-0.3087009
125	0xbccd039c	-0.025026135
126	0xbe1fc3fb	-0.15602104
127	0x3e040afd	0.12894817
128	0xbb951351	-0.004549422
129	0xbe83a452	-0.25711304
130	0x3b86130c	0.004091626
131	0xbcec7ed5	-0.028869072
132	0xbdd6828d	-0.10474119
133	0xbbcc487c	-0.0062342267
134	0x3e9020a1	0.28149894
135	0xbe8af30c	-0.27138555
136	0xbcc5fc0a	-0.024168033
137	0xbe6e5742	-0.23275474
138	0x3e247825	0.16061457
139	0xbd3a17a2	-0.045432694
140	0x3dabd297	0.08389776
141	0x3c6904bb	0.014222319
142	0x3ddfbeb6	0.10925047
143	0xbe82528e	-0.2545361
144	0x3c3327f0	0.010934815
145	0x3e93af14	0.28844512
146	0xbe9254e0	-0.2858038
147	0xbe55cf7a	-0.20879927
148	0xbda98e7d	-0.082791306
149	0xbd879f15	-0.06622139
150	0xbd0be5f1	-0.034154836
151	0x3db4688d	0.08809004
152	0xbe45b1e4	-0.19306141
153	0xbe11668f	-0.14199279
154	0x3d3c6e18	0.04600343
155	0xbd048416	-0.03235253
156	0xbd6ebd61	-0.058286075
157	0x3df0f7f4	0.11766043
158	0x3e981d10	0.29709673
159	0x3e6f1075	0.23346122

linear1.bias f4 [16]
0	0xbc71d82e	-0.014761014
1	0xbe181a0e	-0.14853689
2	0xbe60ca91	-0.21952273
3	0x3e58c9d6	0.21170744
4	0xbd67b458	-0.056568474
5	0xbd6cd247	-0.057817724
6	0xbe53484c	-0.20633048
7	0xbe3c652c	-0.18397969
8	0x3e96d8dc	0.29462326
9	0x3e2ffc1f	0.1718602
10	0xbea0ac14	-0.31381285
11	0xbe702389	-0.23451056
12	0xbe8eeb48	-0.2791388
13	0x3d031621	0.032003526
14	0x3e6f23d4	0.23353511
15	0x3e1ef8c4	0.15524584

linear2.weight f4 [69, 16]
0	0x3d915288	0.0709582
1	0xbe151ce8	-0.14561808
2	0xbd28a7f0	-0.041175783
3	0xbdd77b20	-0.10521531
4	0xbe3bc084	-0.18335158
5	0x3e269774	0.16268712
6	0x3d3f8758	0.046759933
7	0xbd0f9360	-0.035052657
8	0xbcf7fd70	-0.030272216
9	0xbc54f720	-0.012998372
10	0x3e41a8a4	0.18911988
11	0xbdd3e7f4	-0.10346976
12	0xbdde3470	-0.108498454
13	0x3cf17020	0.02947241
14	0x3d24bc90	0.04021889
15	0xbd92a4fc	-0.071603745
16	0x3e600386	0.21876344
17	0xbe413ac2	-0.1887007
18	0xbd9b67c8	-0.07588154
19	0x3e233792	0.15939167
20	0xbd3c3810	-0.045951903
21	0xbe2187c4	-0.15774447
22	0xbe650c76	-0.22368035
23	0x3ddf95f4	0.10917273
24	0x3c7ecbc0	0.0155515075
25	0x3dc828b8	0.097733915
26	0x3e1b799a	0.15183106
27	0xbe177ef0	-0.14794517
28	0x3e19ac98	0.15007246
29	0x3e4acd0c	0.19804782
30	0xbcc316f0	-0.023814648
31	0x3cd7ade0	0.026328027
32	0x3e5200ea	0.20508161
33	0x3da3e4e8	0.08002645
34	0xbe18f706	-0.14937982
35	0x3e03b7cc	0.12863082
36	0xbc8647f0	-0.016391724
37	0xbe244fb6	-0.16046032
38	0xbcdff4d0	-0.027338415
39	0xbe7d3e76	-0.24730858
40	0x3d016a38	0.03159544
41	0xbcab0ef0	-0.020881146
42	0xbd20aa88	-0.03922513
43	0x3e6e2bf8	0.2325896
44	0x3d562310	0.052279532
45	0xbe775148	-0.241521
46	0xbd84516c	-0.064608425
47	0x3d942b04	0.07234767
48	0xbd609fc0	-0.05483985
49	0x3dba073c	0.09083411
50	0xbdda5ea4	-0.106625825
51	0x3d9bb66c	0.076031536
52	0x3e328460	0.1743331
53	0xbe428f46	-0.18999967
54	0xbe7c0766	-0.24612197
55	0xbe0107ec	-0.12600678
56	0xbdfbe5f4	-0.122997195
57	0x3e5169b4	0.20450479
58	0xbe02af7c	-0.12762254
59	0x3e3fa982	0.18717006
60	0x3e374f08	0.17901242
61	0x3e2b9a14	0.16757995
62	0x3e0a0abe	0.1348066
63	0xbe6d2ee8	-0.23162425
64	0xbd65dd28	-0.056119114
65	0xbc97efe0	-0.018546999
66	0x3e6db932	0.23215178
67	0x3e2a744a	0.16645923
68	0xbdbab7f0	-0.091171145
69	0xbce23860	-0.027614772
70	0xbdd654e8	-0.10465413
71	0x3e5034ec	0.20332688
72	0x3e0d820a	0.13819137
73	0xbe576c98	-0.21037519
74	0x3e39e2ec	0.1815297
75	0x3c1a2ae0	0.009409636
76	0x3e68d320	0.22736788
77	0x3e500b28	0.20316756
78	0xbdc1828c	-0.09448728
79	0xbe241da2	-0.16026929
80	0xbe2d4be4	-0.16923481
81	0xbe759988	-0.23984349
82	0x3e1b515a	0.15167752
83	0x3d8d89a4	0.069110185
84	0x3d77d5f0	0.06050676
85	0x3e2cb600	0.16866302
86	0x3e5eb02a	0.21746889
87	0xbcb166c0	-0.02165544
88	0xbe338472	-0.17530993
89	0x3d1c89a0	0.038217187
90	0x3e265ef2	0.16247156
91	0xbe5be4c2	-0.21473983
92	0xbd8cd060	-0.06875682
93	0x3d5ed548	0.05440262
94	0x3e19673e	0.1498079
95	0xbe79f6b0	-0.2441051
96	0xbe01e30a	-0.12684265
97	0x3d4980a0	0.049194932
98	0x3e5b9d32	0.21446684
99	0xbe39595e	-0.18100497
100	0xbe74aa92	-0.23893192
101	0xbdbbc1c0	-0.09167814
102	0xbd98540c	-0.07437906
103	0xbb90db00	-0.004420638
104	0xbde500cc	-0.111817926
105	0xbb90ac80	-0.004415095
106	0x3d950138	0.07275623
107	0x39ba7400	0.0003556311
108	0xbe5650f0	-0.20929313
109	0x3d3e77a8	0.04650083
110	0x3e34f80a	0.17672744
111	0xbd4f9828	-0.050682217
112	0xbb4dce00	-0.0031403303
113	0xbd433110	-0.04765421
114	0x3e2fcfec	0.1716916
115	0xbde976fc	-0.113996476
116	0x3dfa5f5c	0.122252196
117	0x3d955150	0.072909
118	0x3e2fa9d4	0.17154628
119	0x3e360c12	0.17778042
120	0xbd6ed930	-0.058312595
121	0xbd962730	-0.07331693
122	0x3c73c040	0.014877379
123	0xbe410cde	-0.18852565
124	0x3dd3f000	0.10348511
125	0xbe6e3f7c	-0.23266405
126	0xbe33331c	-0.17499965
127	0xbe26ffda	-0.16308537
128	0x3cece940	0.028919816
129	0x3e0313d0	0.12800527
130	0x3d5744e0	0.05255592
131	0xbbae0a40	-0.0053112805
132	0x3e0f7e78	0.14013088
133	0x3d1b1fc0	0.037872076
134	0x3e6d299c	0.23160404
135	0xbd172e10	-0.036909163
136	0xbdd25f00	-0.10272026
137	0x3d11f310	0.035632193
138	0x3dde1ed0	0.10845721
139	0x3db20f0c	0.08694276
140	0x3cc48440	0.023988843
141	0xbe03599e	-0.12827155
142	0x3a322a00	0.00067964196
143	0x3e7a3e5c	0.2443785
144	0xbcbc9ed0	-0.023024946
145	0xbd82db48	-0.06389481
146	0x3e1b04a8	0.15138495
147	0x3d066b20	0.032817006
148	0xbb73aa00	-0.0037180185
149	0xbd1b7ff0	-0.037963808
150	0x3c802da0	0.015646756
151	0x3e569edc	0.20959038
152	0xbdd885b8	-0.1057238
153	0x3e3b5be8	0.18296778
154	0x3d8d5cc8	0.06902462
155	0xbdb1db60	-0.086844206
156	0xbe3a37d4	-0.18185359
157	0xbde6a77c	-0.11262414
158	0xbe657ff8	-0.22412097
159	0xbe6a3830	-0.22872996
160	0xbd97a4f8	-0.07404512
161	0x3da16610	0.07880795
162	0x3c998170	0.018738478
163	0x3e0ab852	0.13546875
164	0xbd9b0930	-0.07570112
165	0xbdb0b340	-0.08627939
166	0xbe70d76c	-0.23519677
167	0x3d9ac044	0.07556203
168	0x3d72be30	0.05926341
169	0x3e72ffb6	0.23730358
170	0x3d2cb170	0.042161405
171	0xbd6f8970	-0.05848068
172	0x3e795b00	0.2435112
173	0xbe4cea50	-0.20011258
174	0x3d86076c	0.06544384
175	0xbe7808a0	-0.2422204
176	0x3d1ea7a0	0.03873408
177	0xbdeb9ef0	-0.11504924
178	0xbe49f71c	-0.19723171
179	0xbdfc9148	-0.12332398
180	0xbe3600d0	-0.17773747
181	0x3c34b440	0.011029303
182	0xbda202a4	-0.0791066
183	0xbe74c234	-0.23902208
184	0x3d118558	0.035527557
185	0x3dddade8	0.108241856
186	0x3e658fb4	0.224181
187	0xbe2acd68	-0.16679919
188	0xba046000	-0.00050497055
189	0x3d856d48	0.06514984
190	0xbe25b748	-0.16183197
191	0x3c193080	0.009349942
192	0xbde391c8	-0.1111179
193	0xbcc691a0	-0.024239361
194	0xbe536b44	-0.20646387
195	0xbe39d07e	-0.1814594
196	0xbe0a24d4	-0.13490611
197	0x3dcbc534	0.09949723
198	0x3d88a764	0.06672552
199	0x3dfe4004	0.12414554
200	0x3e69a66c	0.22817391
201	0xbcc30e30	-0.023810476
202	0x3df176c4	0.11790231
203	0xbe1baefc	-0.1520347
204	0xbe3ad5f6	-0.18245682
205	0xbdf59860	-0.11991954
206	0x3c40fe00	0.011779308
207	0xbe266e3a	-0.16252986
208	0xbe7ed116	-0.24884447
209	0xbe5870be	-0.21136758
210	0x3e36a644	0.17836863
211	0x3e2b3e84	0.16723067
212	0xbe66c530	-0.22536159
213	0x3dfc5dec	0.12322602
214	0x3d119a60	0.035547614
215	0x3d6e5258	0.058183998
216	0x3e1b7d0e	0.15184423
217	0xbe581106	-0.21100244
218	0xbc9b90d0	-0.01898995
219	0x3df4811c	0.11938688
220	0xbddbfc24	-0.107414514
221	0x3e047c32	0.12938002
222	0xbde5c984	-0.11220077
223	0x3e49a878	0.19693172
224	0x3da551bc	0.0807223
225	0xbe5607a4	-0.20901352
226	0xbe6163b2	-0.22010687
227	0xbe02fba0	-0.127913
228	0x3cd168d0	0.025562674
229	0xbdcb2ab0	-0.09920251
230	0x3daec890	0.08534348
231	0xbda5f6f8	-0.08103746
232	0x3e5204e2	0.20509675
233	0xbe3c38fa	-0.1838111
234	0xbe44905a	-0.19195691
235	0xbe75c390	-0.24000382
236	0xbdbcccb0	-0.092187285
237	0x3df19e20	0.11797738
238	0x3e02dc56	0.12779364
239	0x3df05cd8	0.117364585
240	0x3e3a8542	0.18214896
241	0x3e574d32	0.21025541
242	0xbd3d3918	-0.046197027
243	0xbe6acd30	-0.22929835
244	0xbd801520	-0.06254029
245	0xbdb14c68	-0.086571515
246	0xbe7300f8	-0.23730838
247	0xbc862970	-0.01637718
248	0x3e750b88	0.2393018
249	0xbd083128	-0.033250004
250	0x3e4a1f0a	0.19738403
251	0x3e01a538	0.12660682
252	0xbe1a43e2	-0.15064958
253	0xbb190600	-0.0023349524
254	0xbd9d77dc	-0.07688877
255	0x3ca9bc30	0.020719618

linear2.bias f4 [69]
0	0x3e349c58	0.17637765
1	0xbe633656	-0.22188696
2	0x3cf99220	0.030465186
3	0xbe15bac6	-0.1462203
4	0x3c194940	0.009355843
5	0xbe509464	-0.20369107
6	0xbe73992a	-0.23788896
7	0x3b7d8600	0.0038684607
8	0xbbf091c0	-0.0073415935
9	0x3e28e082	0.16491893
10	0x3d946bfc	0.07247159
11	0x3cc27590	0.023737699
12	0xbdb41674	-0.08793345
13	0xbdd5e180	-0.10443401
14	0xbdcc1b78	-0.09966177
15	0x3e7cfb7c	0.24705309
16	0x3d55c728	0.052191883
17	0x3e4280d8	0.18994462
18	0xbe2986da	-0.16555348
19	0xbdd4abac	-0.10384306
20	0xbe2c440e	-0.16822836
21	0xbcbd2c40	-0.02309239
22	0xbe109f28	-0.14123213
23	0x3cd5d580	0.026102781
24	0xbe3dd410	-0.18537927
25	0x3e29724e	0.1654751
26	0xbe2df254	-0.16986972
27	0x3e5f94ba	0.21834078
28	0x3dfe78e8	0.12425405
29	0x3d742060	0.059601188
30	0x3e648ad0	0.22318578
31	0x3e2871ac	0.16449612
32	0xbe57ed8e	-0.21086714
33	0x3e2879fc	0.16452783
34	0xbe69d14a	-0.22833744
35	0x3d137320	0.035998464
36	0x3dffc828	0.12489349
37	0x3e55c624	0.20876366
38	0x3e30d44c	0.17268485
39	0xbe42b862	-0.19015649
40	0x3d53bf90	0.05169636
41	0xbe4adbfe	-0.19810483
42	0x3c18dec0	0.0093304515
43	0xbe1869cc	-0.14884108
44	0xbe3bd152	-0.18341568
45	0xbd46b060	-0.048508048
46	0x3e75e354	0.240125
47	0x3e5cb8b2	0.2155483
48	0xbc2825c0	-0.010262907
49	0xbe62372c	-0.22091359
50	0xbd5889f0	-0.052865922
51	0x3e646bba	0.2230672
52	0xbe302336	-0.17200932
53	0x3ce216d0	0.027598768
54	0x3e5a66a4	0.21328217
55	0x3e57e5c4	0.21083742
56	0x3d27c458	0.040958732
57	0x3dc2f14c	0.0951868
58	0x3e38bb82	0.18040279
59	0x3e13ce8c	0.1443426
60	0xbda81a9c	-0.082082
61	0x3e3b7a62	0.18308404
62	0x3c9a6360	0.018846214
63	0xbe2b1a22	-0.16709188
64	0x3dbe801c	0.09301779
65	0x3dd3f0e0	0.10348678
66	0xbe7f6144	-0.24939448
67	0xbda68e08	-0.08132559
68	0x3df6a2c0	0.12042761
