ezkl_workspace/xlstm_simple/model.onnx (onnx, 7215 bytes, 4 tensors)

linear1.weight f4 [20, 10]
-0.026293669 -0.2732646 -0.3087396 -0.29456106 -0.11207694 -0.27063718 0.17513278 -0.059513763
-0.1953988 -0.0681504 -0.27003452 0.25538856 0.21926954 0.07766957 0.046652656 0.22577825
-0.28127506 -0.26623407 0.05588608 0.05080339 0.1232915 0.019259393 -0.1688442 -0.0664164
-0.11662176 0.0068341033 0.30400002 0.23815386 0.1559105 0.2316006 -0.2866519 -0.21978344
0.20412025 -0.13725525 0.08439744 0.11411519 -0.13649724 0.26364496 -0.079645246 -0.13085607
0.2377819 -0.2584883 -0.23882283 -0.29401395 0.030551426 -0.22729734 -0.21068802 -0.088755205
-0.2864551 -0.08711059 -0.1233344 0.2720337 0.057735544 0.15832378 -0.24729632 0.23136397
-0.001993998 -0.042052492 -0.004714272 0.23985404 0.14159086 0.081159204 0.038248647 -0.04868307
0.1931457 -0.19731465 0.21894915 0.11088363 0.29136762 0.12026939 -0.004503205 0.03580888
0.12277113 -0.21820034 0.20070699 -0.10457178 0.29587469 0.16990642 0.08257191 -0.009496475
-0.06381608 0.044617154 -0.046039585 -0.31423384 0.29178733 0.1275772 0.044635735 0.24001595
-0.028308025 0.12345926 0.085876495 0.018232519 -0.027838504 -0.26212096 -0.26248324 0.011986154
0.06525619 0.25039563 -0.026978817 0.14462565 0.29813182 -0.31136572 0.20210993 -0.11454724
0.27911815 0.20620051 -0.2542093 -0.05961792 0.07900884 -0.07301976 -0.11686864 -0.13646448
-0.026663668 -0.2074242 0.18169633 0.21869504 0.025047472 -0.10671065 0.30804437 0.294134
0.07726903 0.19273804 0.13707507 0.2977529 0.053511072 -0.09563805 0.2782694 0.30452058
-0.17481954 -0.08006821 -0.07272097 0.15496314 0.28155854 0.23115547 0.09150866 -0.21732599
0.094120815 0.2761411 0.012314196 0.29650632 0.3019509 0.022923118 0.18205686 -0.1648197
0.24479291 -0.19275637 -0.22191536 0.15223846 0.2687925 -0.21077442 0.20081142 0.00351678
-0.03157208 0.12375073 -0.26077363 0.1805429 -0.20427275 -0.028316844 -0.020472152 -0.0006111484
0.18927804 -0.16049477 -0.07341739 0.07820449 -0.011816366 -0.002642806 -0.19722858 0.009735626
-0.053342152 -0.15003596 -0.20226905 0.07738201 -0.109507605 0.10971245 -0.27630797 -0.24424566
-0.026003363 -0.11118691 0.07187915 -0.011048245 0.17417066 -0.06427444 0.29197058 0.03316679
-0.22182502 0.12769265 -0.17382348 -0.16371913 -0.030779043 0.16278982 -0.24255045 -0.12352832
-0.15058038 -0.12725233 -0.14747016 -0.022536417 -0.19192262 -0.07785836 -0.20947829 -0.009794623
00000000: d265 d7bc 56e9 8bbe 1e13 9ebe b5d0 96be
00000010: 9888 e5bd f590 8abe 0256 333e b4c4 73bd
00000020: 9f16 48be 7092 8bbd f741 8abe 4ac2 823e
00000030: 3288 603e 3911 9f3d db16 3f3d 6a32 673e
00000040: 4903 90be d54f 88be cde8 643d 3717 503d
00000050: 4180 fc3d e0c5 9d3c 7ee5 2cbe 5205 88bd
00000060: 64d7 eebd 9df0 df3b e4a5 9b3e 9bde 733e
00000070: 01a7 1f3e b528 6d3e 0ac4 92be e90e 61be
00000080: e604 513e a48c 0cbe 91d8 ac3d 3ab5 e93d
00000090: efc5 0bbe 79fc 863e 0c1d a3bd 22ff 05be
000000a0: 197d 733e 9458 84be f98d 74be ff88 96be
000000b0: fc46 fa3c a2c0 68be 9abe 57be 4ac5 b5bd
000000c0: 3eaa 92be 0967 b2bd bf96 fcbd 0048 8b3e
000000d0: 1b7c 6c3d a11f 223e 3f3b 7dbe adea 6c3e
000000e0: bcad 02bb 3c3f 2cbd 2e7a 9abb 4c9c 753e
000000f0: 32fd 103e cc36 a63d 9daa 1c3d e667 47bd
00000100: fdc7 453e da0c 4abe 3534 603e f516 e33d
00000110: 232e 953e cc4f f63d 9f8f 93bb 55ac 123d
00000120: 6e6f fb3d e96f 5fbe 2286 4d3e bb29 d6bd
00000130: e37c 973e f3fb 2d3e 761b a93d 1a97 1bbc
00000140: 01b2 82bd 7ac0 363d 0194 3cbd 42e3 a0be
00000150: 2665 953e 99a3 023e f6d3 363d bec6 753e
00000160: 3be6 e7bc 35d8 fc3d 04e0 af3d 5d5c 953c
00000170: 930d e4bc b834 86be 3464 86be 9361 443c
00000180: 0aa5 853d db33 803e ae02 ddbc bf18 143e
00000190: bca4 983e 546b 9fbe e8f5 4e3e be97 eabd
000001a0: 93e8 8e3e 3a26 533e b927 82be ec31 74bd
000001b0: 63cf a13d 628b 95bd d358 efbd 58bd 0bbe
000001c0: c46d dabc 0267 54be 9a0e 3a3e 98f1 5f3e
000001d0: 5b30 cd3c 1d8b dabd feb7 9d3e bb98 963e
000001e0: 3a3f 9e3d 1f5d 453e 685d 0c3e 1173 983e
000001f0: 6d2e 5b3d e2dd c3bd 5479 8e3e 1fea 9b3e
00000200: e503 33be cdfa a3bd bbee 94bd a8ae 1e3e
00000210: 7128 903e 05b4 6c3e e468 bb3d b48a 5ebe
00000220: 6ac2 c03d 5e62 8d3e 7bc1 493c adcf 973e
00000230: 4f99 9a3e 43c9 bb3c 1d6d 3a3e 7fc6 28be
00000240: feaa 7a3e ed61 45be c83d 63be 66e4 1b3e
00000250: 2c9f 893e 40d5 57be 82a1 4d3e c779 663b
00000260: ba51 01bd 0671 fd3d 1f84 85be 3de0 383e
00000270: e02c 51be baf8 e7bc 37b5 a7bc 7a35 20ba
00000280: 1ad2 413e be58 24be db5b 96bd ad29 a03d
00000290: 6e99 41bc ed32 2dbb 4af6 49be 2d82 1f3c
000002a0: 4d7d 5abd 07a3 19be 9e1f 4fbe 767a 9e3d
000002b0: 8645 e0bd ecb0 e03d 3d78 8dbe 891b 7abe
000002c0: 0105 d5bc f6b5 e3bd 6035 933d b303 35bc
000002d0: cb59 323e 51a2 83bd 2b7d 953e e6d9 073d
000002e0: 1926 63be ddc1 023e c8fe 31be fda5 27be
000002f0: 5524 fcbc 60b2 263e 255f 78be 6afc fcbd
00000300: be31 1abe 6f4e 02be 6b02 17be 4b9e b8bc
00000310: 5d87 44be 3474 9fbd 7a81 56be a079 20bc

linear1.bias f4 [20]
0.13581657 -0.0058453414 0.3159554 -0.09918345 0.023989309 -0.044976823 0.15446761 -0.0025918393
0.09687649 -0.088343404 -0.21878351 -0.14631976 -0.15745866 0.027245263 0.017928189 -0.3029076
-0.292746 -0.0011398905 -0.19454397 -0.10151977
00000000: 8013 0b3e 478a bfbb e8c4 a13e b120 cbbd
00000010: 3a85 c43c 9e39 38bd c22c 1e3e d9db 29bb
00000020: 2e67 c63d 63ed b4bd c908 60be d9d4 15be
00000030: d83c 21be 7531 df3c 23de 923c b416 9bbe
00000040: cee2 95be 6168 95ba 8936 47be 99e9 cfbd

linear2.weight f4 [69, 20]
0.16749129 -0.15577045 0.07257255 0.17077 0.19379781 -0.01019363 -0.19219746 -0.21079741
-0.21348788 0.011880289 -0.2113969 0.20571657 -0.043989554 -0.029358713 0.15282987 -0.068714365
-0.080555335 0.19109026 -0.22336462 0.19221522 -0.01710604 -0.07274507 -0.10378415 -0.19786379
0.18843876 0.12711765 -0.19240557 -0.10359548 0.16052581 -0.21917419 -0.11580252 -0.023412265
-0.21605699 0.1726801 -0.05404111 -0.11094976 -0.21044004 0.22027381 0.061232742 0.21614975
0.05648112 -0.09106993 -0.0034340934 0.21707146 0.06787883 0.19244267 -0.17068015 -0.12901145
-0.18288353 -0.12748297 0.049165938 0.14581946 -0.06562533 -0.22156198 0.09354921 -0.19612664
-0.09594358 0.18842204 0.010519447 -0.16885392 0.11906607 0.18930753 0.047819305 -0.18354677
0.044813734 -0.19010147 0.21178709 0.18242401 0.089857824 -0.0055446895 -0.20529567 0.001423031
-0.0036825275 0.14059146 -0.13189414 -0.11574433 -0.07208384 0.1512593 0.16895686 -0.020831803
-0.019983903 0.010949408 0.12634419 0.08356576 -0.005615781 -0.15507306 -0.10283946 0.112218246
-0.066901326 -0.07551143 0.12475806 -0.21313997 0.20103881 0.1586746 -0.1384874 0.18715762
-0.07440238 -0.15765698 -0.19991158 0.12431357 0.03535045 0.20446368 -0.07359457 0.13553822
0.096540086 0.08396983 0.06739209 -0.22262852 0.06481965 0.076669395 0.12534201 0.024834603
0.12192863 -0.05943407 -0.19719933 -0.2074302 0.019432336 0.07812431 -0.12706926 -0.15847713
0.060721077 0.2009051 -0.13096713 -0.13202941 -0.09876357 -0.09607145 -0.056648787 0.12193161
0.111596495 0.056132354 -0.136137 -0.22261693 0.13672954 0.09837274 -0.14376011 -0.18782446
-0.20993602 -0.061877042 0.21334055 0.010993897 -0.19568577 0.13407668 -0.20339751 0.10199897
-0.075255856 0.095048234 -0.16094473 0.15877941 0.0011230176 0.057540696 0.21829031 -0.060539123
0.027702656 -0.0059017465 -0.20506947 0.184182 0.0577979 -0.017137893 0.09078991 0.09102592
-0.06966582 0.1596869 0.21596014 0.08225934 -0.10863093 -0.21998304 -0.097766556 0.10295854
0.21166715 0.069184944 0.11561336 -0.13716075 0.20005327 -0.06793462 0.1390727 -0.14784826
0.11810701 0.141294 0.1271779 -0.051217064 0.043942053 0.16369222 0.15016355 -0.0853825
0.21134639 -0.07240329 0.11453239 0.03300195 -0.0019791285 0.21619123 0.20931205 -0.07332646
-0.1836062 -0.019472187 -0.0020242839 0.18281257 -0.17909575 -0.1363716 0.2017043 -0.12553892
0.18205786 -0.16219343 -0.13471588 -0.06813521 -0.07500766 0.21367697 -0.13283834 -0.1981599
-0.090304315 -0.06047307 -0.13898762 -0.10530354 -0.12173042 0.20378253 -0.07939273 -0.20967829
0.14378881 0.120713964 0.09200526 -0.12595055 0.05902248 0.21294767 0.13528699 -0.2102455
-0.13240898 0.024590699 0.039645772 -0.05259814 0.21080427 -0.03484644 -0.13382171 0.020257259
0.00046544053 -0.017637268 0.11961414 -0.20428716 0.051153146 -0.17782393 -0.028777212 0.07580598
0.10715112 0.20266783 0.22030284 0.1237177 0.044228233 0.18658939 -0.00493552 0.076210566
0.12129653 -0.009028416 0.027452596 -0.06194323 0.08371841 -0.07445081 -0.20020716 0.030727925
00000000: d682 2b3e 4a82 1fbe eba0 943d 55de 2e3e
00000010: ef72 463e 2f03 27bc 69cf 44be 47db 57be
00000020: 919c 5abe 8ba5 423c 6e78 58be 5da7 523e
00000030: 642e 34bd af81 f0bc 6f7f 1c3e 1eba 8cbd
00000040: 32fa a4bd 2aad 433e b2b9 64be 11d4 443e
00000050: f721 8cbc 5efb 94bd c98c d4bd ce9c 4abe
00000060: 17f6 403e 212b 023e f705 45be de29 d4bd
00000070: e160 243e 336f 60be df29 edbd 14cb bfbc
00000080: 0b3e 5dbe 0dd3 303e 365a 5dbd a139 e3bd
00000090: 987d 57be 758f 613e 2fcf 7a3d 5c56 5d3e
000000a0: bf58 673d df82 babd 870e 61bb fb47 5e3e
000000b0: 0e04 8b3d b10f 453e c7c6 2ebe 941b 04be
000000c0: d245 3bbe e58a 02be 3962 493d b251 153e
000000d0: 9366 86bd 25e1 62be ba96 bf3d 6cd5 48be
000000e0: 117e c4bd b5f1 403e c259 2c3c 0be8 2cbe
000000f0: e9d8 f33d d5d9 413e 2dde 433d aff3 3bbe
00000100: 9b8e 373d f6a9 42be b7de 583e 5ccd 3a3e
00000110: 6107 b83d 3ab0 b5bb 0739 52be ff84 ba3a
00000120: 8f56 71bb 35f7 0f3e 420f 07be 5d0b edbd
00000130: b1a0 93bd b8e3 1a3e 0703 2d3e 75a7 aabc
00000140: 48b5 a3bc 2565 333c 5f60 013e 8624 ab3d
00000150: 9604 b8bb 79cb 1ebe 7f9d d2bd aed2 e53d
00000160: 9003 89bd bda5 9abd 2781 ff3d 5d41 5abe
00000170: 1edd 4d3e 987b 223e a4cf 0dbe 3fa6 3f3e
00000180: 4660 98bd d570 21be 9fb5 4cbe 1d98 fe3d
00000190: a2cb 103d ed5e 513e c0b8 96bd 88ca 0a3e
000001a0: cfb6 c53d 60f8 ab3d dd04 8a3d bbf8 63be
000001b0: 2ac0 843d d804 9d3d a859 003e f071 cb3c
000001c0: b8b5 f93d 2471 73bd 9fee 49be 9568 54be
000001d0: 9030 9f3c a3ff 9f3d 721e 02be d447 22be
000001e0: aab6 783d 11ba 4d3e 3f1c 06be b832 07be
000001f0: 8e44 cabd 1cc1 c4bd 8f08 68bd 48b7 f93d
00000200: b48c e43d 0aeb 653d 7f67 0bbe b1f5 63be
00000210: d402 0c3e a677 c93d da35 13be 0e55 40be
00000220: 78f9 56be c872 7dbd f275 5a3e bf1f 343c
00000230: da61 48be 664b 093e 7047 50be d6e4 d03d
00000240: be1f 9abd a6a8 c23d b2ce 24be 1297 223e
00000250: 3832 933a cbaf 6b3d 7f87 5f3e dff7 77bd
00000260: aef0 e23c 7063 c1bb bbfd 51be 359a 3c3e
00000270: 7ebd 6c3d c464 8cbc 0ff0 b93d cc6b ba3d
00000280: f4ac 8ebd f684 233e a824 5d3e 9677 a83d
00000290: e579 debd 3c43 61be d539 c8bd eddb d23d
000002a0: 46bf 583e d6b0 8d3d b3c6 ec3d de73 0cbe
000002b0: c4da 4c3e 4e21 8bbd 1369 0e3e 8965 17be
000002c0: 17e2 f13d 60af 103e ec3a 023e fcc8 51bd
000002d0: 95fc 333d ef9e 273e 79c4 193e 05dd aebd
000002e0: 306b 583e 2d48 94bd f58f ea3d 0d2d 073d
000002f0: 44b4 01bb 3c61 5d3e e655 563e 2f2c 96bd
00000300: 4403 3cbe 2384 9fbc d9a9 04bb 3833 3b3e
00000310: e064 37be ffa4 0bbe 928b 4e3e 468d 00be
00000320: 606d 3a3e 0916 26be f6f2 09be 798a 8bbd
00000330: 9e9d 99bd 23ce 5a3e c606 08be 6eea 4abe
00000340: 78f1 b8bd 9cb2 77bd c552 0ebe 62a9 d7bd
00000350: cc4d f9bd 5eac 503e a898 a2bd e8b5 56be
00000360: 603d 133e e238 f73d 416d bc3d 2ef9 00be
00000370: 8ec1 713d f40e 5a3e ac88 0a3e 994a 57be
00000380: 3896 07be 6f72 c93c 9b63 223d 2671 57bd
00000390: 13dd 573e 24bb 0ebd 8f08 09be 8df2 a53c
000003a0: 5f06 f439 087c 90bc 42f8 f43d a730 51be
000003b0: f685 513d 7a17 36be 30be ebbc 2a40 9b3d
000003c0: 0c72 db3d 2888 4f3e 1197 613e b55f fd3d
000003d0: aa28 353d 4a11 3f3e 24ba a1bb 4914 9c3d
000003e0: 516a f83d eceb 13bc 44e4 e03c 2fb8 7dbd
000003f0: 8f74 ab3d ab79 98bd 1b03 4dbe 21b9 fb3c

linear2.bias f4 [69]
0.06017908 0.117406435 0.058972284 0.074255936 0.09561288 0.14799008 0.08112844 -0.067153625
-0.071961544 -0.028236868 -0.052032687 0.15537392 0.12768966 0.042279225 0.09191071 0.049079865
0.08393651 -0.19300061 -0.049355198 -0.057365593 0.108167015 0.0873323 -0.17094572 -0.21388197
-0.11482813 -0.09322509 -0.09106228 -0.20282154 -0.17813559 0.16369164 -0.17203635 0.09056949
0.084533155 -0.1357325 -0.17461087 -0.15278186 -0.09544543 0.21554722 -0.13180673 -0.15796725
-0.122850955 0.044577587 0.10361206 -0.075297624 0.13019957 0.031022688 -0.1369602 -0.06992726
-0.18726772 -0.0805809 -0.12698975 -0.0050113825 0.21373212 -0.14404799 -0.16620335 -0.020430123
0.10562936 0.18289158 -0.1904918 -0.1898501 -0.1412936 -0.13182907 -0.17877616 0.049679574
0.18701412 0.0011522592 0.18481767 0.08384615 0.013473519
00000000: 577e 763d c972 f03d ec8c 713d 7f13 983d
00000010: b0d0 c33d b68a 173e ab26 a63d d787 89bd
00000020: 9360 93bd 0151 e7bc 3a20 55bd 571a 1f3e
00000030: 14c1 023e fb2c 2d3d af3b bc3d f807 493d
00000040: e8e6 ab3d f4a1 45be ad28 4abd 2ff8 6abd
00000050: ab86 dd3d 47db b23d 650c 2fbe e003 5bbe
00000060: 032b ebbd ccec bebd dc7e babd 73b0 4fbe
00000070: 2d69 36be c89e 273e 4c2a 30be 7f7c b93d
00000080: b81f ad3d 76fd 0abe 31cd 32be d972 1cbe
00000090: e578 c3bd 69b8 5c3e 58f8 06be 2bc2 21be
000000a0: 4899 fbbd fd96 363d 8f32 d43d a435 9abd
000000b0: 0953 053e 4b23 fe3c 4b3f 0cbe 0636 8fbd
000000c0: 1cc3 3fbe 9907 a5bd 9a09 02be 8636 a4bb
000000d0: 98dc 5a3e 5181 13be 3631 2abe 135d a7bc
000000e0: 3554 d83d ee47 3b3e 4810 43be 1168 42be
000000f0: 45af 10be 33fe 06be 1911 37be cf7c 4b3d
00000100: a180 3f3e 6707 973a d840 3d3e 88b7 ab3d
00000110: 09c0 5c3c
