ezkl_workspace/mamba_simple/model.onnx (onnx, 8495 bytes, 4 tensors)

linear1.weight f4 [24, 10]
000000 e1 0a b6 3c 79 9e 88 bc a6 b8 e0 3d 08 21 d2 bc
       0.022221984 -0.016677128 0.10972719 -0.025650516
000010 52 e6 85 bd f6 35 8c 3e 76 91 32 be 0c 34 c9 bc
       -0.06538071 0.2738492 -0.17438301 -0.02456095
000020 49 d3 3a 3e 4f fd 5e be ae 00 12 be 80 82 02 be
       0.18244661 -0.21776317 -0.14258072 -0.12745094
000030 70 81 95 3e ff 9a 88 bb 01 14 26 3e 32 6f e8 3d
       0.29200315 -0.0041688676 0.16218568 0.11349334
000040 5c ea 6a be 2b d0 8c be bb 50 82 3e b2 4c 60 be
       -0.22940964 -0.2750257 0.25452217 -0.21904257
000050 54 f2 07 be 0e 1d 26 3e a6 e9 a7 bd db 56 c3 3d
       -0.13276035 0.16222021 -0.08198862 0.09538051
000060 9f a9 7c 3d 93 ac 70 3e 90 71 1a 3e af b5 8e be
       0.0616852 0.23503332 0.15082383 -0.2787299
000070 6b e2 b4 bd 25 e4 c2 bd 8e f8 81 be a7 36 10 3e
       -0.08832248 -0.09516171 -0.25384945 0.14083348
000080 49 73 14 be 35 99 00 3e 3d a2 cd bd ab e4 da 3c
       -0.14497103 0.12558444 -0.1004071 0.026720366
000090 ae 1a 9b 3e b5 fe 92 3c 5a 20 82 3e 11 80 f7 3d
       0.30293792 0.01794372 0.25415307 0.120849736
0000a0 5c eb 3f 3c 9e f6 17 bd e1 df 8c bd 1f 95 21 be
       0.011713829 -0.037100427 -0.06878639 -0.15779541
0000b0 31 7b 5e 3e 87 8f 63 3e 63 12 1f bd 8b 2a 88 3e
       0.21726681 0.2222272 -0.038835894 0.26594958
0000c0 c3 ea 16 3e 5e 04 19 3e f3 c8 96 3e 5d 5a 5b 3e
       0.14737992 0.14943072 0.29450187 0.2142119
0000d0 64 e9 62 3e 2d e5 8f be a5 f3 73 be 56 a9 57 be
       0.22159344 -0.28104535 -0.23823412 -0.2106069
0000e0 a7 77 9d be da 80 cc bc e5 77 7c be e8 eb 84 bd
       -0.3075535 -0.024963785 -0.24655111 -0.06490308
0000f0 7d ef 57 be e1 b5 17 be f2 d0 17 3d 58 ec 16 be
       -0.21087451 -0.14815475 0.0370645 -0.14738595
000100 cd 4c b4 3d 58 dd 52 3c c8 f4 75 3e b4 87 be bd
       0.08803711 0.012870155 0.24019158 -0.09303227
000110 a4 38 2d 3e 8b 9e 94 3e 94 d8 0e 3d 4c 94 69 be
       0.16916138 0.2902721 0.034874514 -0.22810477
000120 1a 8b 0e bd 7c 6c 8a 3c 39 5e ac bd 4a e8 a4 3d
       -0.034800626 0.016897433 -0.08416409 0.08052118
000130 da 37 66 3e 24 ca b3 3d 65 d2 e5 3d 2e 5b 02 be
       0.22482243 0.0877879 0.1122177 -0.12730095
000140 27 aa 38 bd 13 24 8f be 44 46 58 3c 9c f9 59 3e
       -0.045084145 -0.2795721 0.013200346 0.21286625
000150 cf 40 84 3e f6 05 40 3e c1 70 5b 3e c1 0f 11 3e
       0.25830695 0.18752274 0.21429731 0.14166166
000160 09 40 24 3e 12 ee 2c be 2c 84 a9 3d 5f ac 0f 3e
       0.16040052 -0.16887692 0.08277163 0.14030598
000170 0c 98 04 bd f5 4b e2 bd 55 99 63 be a2 8f 86 be
       -0.032371566 -0.11049644 -0.2222646 -0.26281458
000180 b4 8e a8 bc fc 75 81 be 51 e0 01 3e 97 d0 a4 3d
       -0.020575859 -0.25285327 0.12683226 0.08047598
000190 e8 05 81 be 64 0b 9f be d1 56 5d be 1b 43 02 be
       -0.2519982 -0.31063378 -0.21615149 -0.12720911
0001a0 76 39 a1 3e 44 18 b0 bd e1 60 3a 3d 5a 22 68 bd
       0.31489152 -0.08598378 0.045502547 -0.056673385
0001b0 dc 47 71 3e e5 23 8b 39 23 ec ad 3d 45 fd 0e be
       0.23562568 0.0002653889 0.08492305 -0.13963802
0001c0 3a 3b 30 bd e7 b1 28 3e 73 a5 4b 3e a3 d0 3f be
       -0.043025233 0.16474114 0.19887333 -0.18731932
0001d0 67 89 ab bd ca f4 70 be 6f 98 c3 3d 2c 0b 5f 3e
       -0.08375817 -0.2353088 0.09550559 0.21781605
0001e0 05 f8 8e be d0 d3 78 bd ad 71 55 3e 23 26 a9 bd
       -0.279236 -0.060748875 0.20844145 -0.08259227
0001f0 1b c0 71 3e 1a fc 98 3e 0c 69 8b be 42 05 6d be
       0.23608439 0.29879838 -0.27228582 -0.23146537
000200 5a 47 75 3e 0a 44 16 bd df 1c 92 3e 24 d5 7a be
       0.23953 -0.03668598 0.28537652 -0.24495369
000210 b5 11 63 be a7 ce 51 bb 00 2e b9 bd f4 e3 43 bd
       -0.22174723 -0.0032014044 -0.09041977 -0.047824815
000220 ef d3 48 3e 23 ae 7c 3e ef fa 82 3e 89 25 8a 3e
       0.19612096 0.24675803 0.25582072 0.26981762
000230 39 e4 88 3e fb 58 26 3e ba 1d 75 3e 73 db 8f 3d
       0.2673662 0.16244881 0.23937121 0.070242785
000240 e9 74 df bd a2 89 3a be bb 7d 8f bc 4a 74 5c be
       -0.10910971 -0.18216565 -0.017516008 -0.21528736
000250 c0 b5 5c 3e 3d b0 78 bb 85 8a 2b 3e a6 22 7a 3e
       0.21553707 -0.0037946843 0.1675206 0.2442728
000260 95 b6 f8 bd a1 f5 7b 3e 77 ad 90 bc 1c 8f 92 be
       -0.121442 0.24605419 -0.01766084 -0.2862481
000270 b1 52 27 be 9e 01 54 bd b1 23 95 3e f8 a1 81 bd
       -0.16340138 -0.051759355 0.29128793 -0.06329721
000280 0e d7 93 be 5a ef 17 be ec de 5b 3d c4 eb b7 bd
       -0.2887501 -0.14837399 0.05367939 -0.089805156
000290 de ac 86 be 59 08 82 3b b4 cf d8 bd 0b 83 4a 3e
       -0.26303762 0.0039682803 -0.10586491 0.19776551
0002a0 e6 e5 92 3e 87 0e 66 be 02 88 9c 3e d1 28 16 3e
       0.28691024 -0.22466479 0.30572516 0.14664008
0002b0 05 ba 5e be d3 2b 12 be 9b f8 58 be 8c a2 ff bd
       -0.21750648 -0.1427453 -0.21188585 -0.12482175
0002c0 72 f6 a2 3d fb 74 02 be bf 9d 64 3e 05 2f 9e 3c
       0.07957162 -0.12739937 0.223258 0.01930953
0002d0 74 80 12 be 01 aa 2b be ec e8 2b be 97 f0 9c 3e
       -0.14306813 -0.1676407 -0.16788071 0.30652305
0002e0 b4 1d 57 be 09 f6 5e be 45 b7 5f be d0 de 63 be
       -0.21007425 -0.21773542 -0.21847256 -0.22252965
0002f0 7b 69 44 3d 02 d7 92 3e 1e 3e 1c 3e 89 50 27 be
       0.047952157 0.28679663 0.15258071 -0.16339315
000300 34 bf a8 3d 27 c0 95 bd 93 8a 37 be ce fe cf 3d
       0.08239594 -0.07312041 -0.17923956 0.10156022
000310 34 3b 8c be 21 ae fc 3c 48 82 9a 3d aa ec 54 be
       -0.27388918 0.03084475 0.075443804 -0.20793405
000320 18 2a 8d 3d a6 59 17 bd 17 61 29 be 60 13 bc 3d
       0.06892794 -0.03695073 -0.16540943 0.09183383
000330 3e 29 8b be aa 47 6e 3e ad c1 25 be e7 6c 1e be
       -0.27179903 0.23269525 -0.16187163 -0.1547123
000340 1f a8 bf bd 4a e5 80 be e2 a2 92 be c0 c1 7a 3e
       -0.093582384 -0.25174934 -0.28639895 0.24487972
000350 9e 72 b5 3c fb 49 68 3e 56 fe 3b 3e 66 09 86 bc
       0.02214938 0.22684471 0.1835874 -0.016361903
000360 9e 67 13 3e 05 f7 86 3e 13 e4 42 3e b6 06 2e 3e
       0.14394996 0.26360336 0.19032316 0.16994748
000370 ae 85 8b 3e 29 92 e5 3d dc d8 05 3e 8e 25 62 bc
       0.27250427 0.112095185 0.13071007 -0.013802899
000380 71 fb 43 3e 1e 31 ab bd 7d d1 f9 3d d9 a9 45 be
       0.19138886 -0.08358978 0.1219816 -0.19303073
000390 a4 47 54 be 02 f0 88 be 6b 3a a0 be 0e 6d 3d 3e
       -0.20730454 -0.2674561 -0.3129457 0.18498632
0003a0 0b b9 36 3c a9 25 8f bc 9e 15 77 3e 5c 6a 93 3e
       0.011152516 -0.017474012 0.2412934 0.28792083
0003b0 2c 12 9c 3e c7 5e 22 be bf 7c b0 bd 74 a7 01 3e
       0.30482614 -0.15856467 -0.086175434 0.12661535

linear1.bias f4 [24]
000000 80 33 90 bd 3d 34 5b 3e e0 b8 a1 be bf 38 28 3e
       -0.07041073 0.21406646 -0.3158636 0.16427897
000010 db 0b 51 bb 87 ec 61 3e 88 d2 38 3e 4e b1 9b 3e
       -0.0031897936 0.22062884 0.18049061 0.3040871
000020 90 6b 8d be d9 43 1d be 9c e3 4f 3e a3 9c 47 3e
       -0.27621126 -0.15357913 0.2030167 0.19493346
000030 89 d5 e2 b9 45 32 17 3e 46 f3 96 3e 31 c9 7a 3e
       -0.00043265175 0.1476527 0.29482478 0.24490811
000040 35 3f 8c 3e 5e d3 37 3e cb c2 96 be 41 4b 09 3d
       0.27391973 0.17951724 -0.2944549 0.033519033
000050 03 15 f5 3c 93 38 56 be 05 41 3d be a6 d4 93 be
       0.029917246 -0.20920019 -0.18481834 -0.28873175

linear2.weight f4 [69, 24]
000000 76 3a ec bd e3 2b 49 3d 57 6f b5 bd c8 18 29 3e
       -0.11534588 0.04911412 -0.08859127 0.1651336
000010 31 04 42 be 63 fe c1 bd f0 b1 29 be 60 c5 85 bd
       -0.18946911 -0.094723485 -0.16571784 -0.06531787
000020 d8 0a 0e be 88 6c 4a be a4 da a5 3a d3 9f 2b 3e
       -0.13871324 -0.19767964 0.0012653661 0.16760187
000030 1e 84 2e 3d a2 f3 ce 3d 0f 81 a4 3c 20 bc 20 be
       0.042606466 0.10105063 0.020081071 -0.15696764
000040 9f 44 c1 3d f8 00 a9 bd 89 c7 c3 bd 29 8a 29 3e
       0.094369166 -0.08252138 -0.09559543 0.1655661
000050 6e ba e8 3c f3 ad e1 3d 19 6b ae 3d 3f 29 4d be
       0.02840921 0.11019506 0.08516521 -0.20035265
000060 81 c0 1f bd 2a c8 ef 3c 90 2c 20 bc b6 f6 ba 3d
       -0.039001945 0.02927025 -0.0097762495 0.091290876
000070 67 ae 1e be 0e 6d 43 be 54 d3 16 3e d6 42 f2 bd
       -0.15496217 -0.1908457 0.14729053 -0.11829154
000080 6e b0 cd bc a3 38 c7 3d dd 78 d3 3d 52 c2 f8 bd
       -0.025108542 0.097275995 0.10325787 -0.12146439
000090 b7 a7 3f 3e 76 94 12 3e 24 92 9f 3a f5 2a 31 bc
       0.18716322 0.14314446 0.0012174291 -0.010813464
0000a0 de 5d 9c bc bb 4c 44 be d5 3b 81 bb 52 a7 03 bd
       -0.019087728 -0.19169895 -0.0039439 -0.03214199
0000b0 13 6b fc bd 79 c6 44 bd e7 38 de 3d 9d b2 99 3c
       -0.1232511 -0.04804084 0.10850697 0.018761927
0000c0 b5 46 47 ba 57 48 4e be 4d 55 34 be f1 de 26 be
       -0.0007601784 -0.20144783 -0.17610665 -0.16295983
0000d0 20 c5 f0 bd 7d 80 42 3d 19 20 40 3e 09 63 98 bd
       -0.117563486 0.047485817 0.18762244 -0.074407645
0000e0 f0 b5 34 3e a0 25 95 bd a1 c0 47 3e 3c 95 af 3d
       0.17647529 -0.07282567 0.19507076 0.08573386
0000f0 36 ba ee 3c 72 9c 8f 3d ae c0 8d bc 3c aa 43 3e
       0.029141527 0.070122615 -0.01730379 0.19107908
000100 ea 44 d3 3d 54 8a 34 3d a5 7d 06 bd be c7 20 3e
       0.10315879 0.044077232 -0.032834668 0.15701196
000110 c3 21 00 be b3 d2 b5 bd 1c 7a 0a 3e d2 7d 23 3c
       -0.12512879 -0.08878078 0.13523144 0.009978728
000120 6e c6 44 3e d4 d5 a6 3d 9e c9 40 3e 9f ad 0f 3e
       0.1921632 0.08146253 0.18826911 0.14031075
000130 e7 9c 26 be 79 08 da bd 6e 6c 32 be 61 3a a5 bd
       -0.16270791 -0.10646147 -0.17424175 -0.080677755
000140 a4 ac 1d be a9 b1 ab bd 69 68 d2 bd 2f 13 86 bd
       -0.15397888 -0.08383495 -0.10273821 -0.06546628
000150 25 cc 02 3d 01 0c 89 bd 2f a4 45 3e 7f ef 04 be
       0.03193297 -0.06691743 0.19300912 -0.12981986
000160 ff 52 27 bd db a0 9e 3d 99 96 75 3d 7c be 9c 3d
       -0.040850636 0.077455245 0.059958074 0.076535195
000170 b8 31 cd 3d de f7 cf bd c2 68 4a 3e 5c 93 ea 3d
       0.10019249 -0.10154699 0.19766524 0.11453888
000180 f3 14 bb 3d e6 57 37 be 52 15 4a be 41 5a b5 bd
       0.09134855 -0.17904624 -0.19734696 -0.08855105
000190 39 0d 04 be 4d 9c 17 be 92 21 87 bd e2 a5 62 3d
       -0.12895669 -0.14805718 -0.065982 0.05533398
0001a0 9e d5 b6 bd 63 5e 47 bc ed 62 9a 3b 79 d7 b0 3b
       -0.08927463 -0.0121685 0.0047115 0.00539678
0001b0 fa 1d 3f 3e 45 06 c7 bd 44 f1 50 be 8b b4 dc 3d
       0.18663779 -0.09717993 -0.20404536 0.10776623
0001c0 9f cb 61 bd 3c e3 1e bd dc e0 15 3e be d4 39 be
       -0.05512583 -0.038790926 0.14636558 -0.18147561
0001d0 78 44 a9 bd 1d 44 4d 3e 95 11 83 bd 97 e7 2b 3e
       -0.082650125 0.20045514 -0.06399838 0.16787563
0001e0 da 8d 19 3e 6c 53 44 3d 22 63 37 be 5e 67 28 be
       0.14995518 0.04793112 -0.1790891 -0.16445681
0001f0 84 25 3d 3c 82 54 2d 3b 4e e1 b6 3c 82 c3 ab bc
       0.011544589 0.0026448076 0.02232423 -0.020967249
000200 7a 3d 8f bc 10 44 4e 3d 29 01 60 bd 31 a5 35 bd
       -0.017485369 0.05035788 -0.054688606 -0.044346992
000210 9f 17 f0 bc 18 34 d5 bc dd b5 0f 3e c6 68 cf 3d
       -0.029308138 -0.026025817 0.14034219 0.10127406
000220 b7 b7 cc bd dd 3d da 3d c0 ad ff bd d9 29 f5 bd
       -0.09995978 0.10656331 -0.12484312 -0.119708724
000230 85 4c e5 3d d9 84 3b bd 4a 6c 88 3d cc 6a 4a be
       0.111962356 -0.04578099 0.066612795 -0.19767302
000240 c4 8d 21 3e a5 9c 6b 3c 63 51 34 be eb f7 c6 3d
       0.15776736 0.014380609 -0.17609172 0.09715255
000250 7c 5f 9e bd 22 5c 2d be fb 51 1b be a5 cc fc 3c
       -0.07733056 -0.16929677 -0.15167992 0.0308593
000260 0a 9a 11 bd 58 51 bf bc 5c d0 7f bd 67 ec 24 bd
       -0.035547294 -0.023354217 -0.062454566 -0.040264513
000270 1d 6a f8 bc 1c ed 2d 3e d2 65 ff 3d 63 78 10 3e
       -0.030324036 0.16984981 0.124705926 0.14108424
000280 8e f0 0b be ad 5e c4 3d 91 90 65 3b ef e9 14 be
       -0.13665983 0.095883705 0.0035028795 -0.14542364
000290 a8 91 cd bd 79 21 06 3e 2e 9d d1 3b cd f9 8c 3d
       -0.10037547 0.13098706 0.006396911 0.06883583
0002a0 82 c6 b8 bd 47 07 2d be fa 58 21 3e d7 7a bc 3d
       -0.09022237 -0.16897307 0.15756598 0.09203117
0002b0 c5 19 ce 3d 89 46 2a bd 5f 94 db bd 99 02 0a bd
       0.10063509 -0.041571174 -0.10721659 -0.033693884
0002c0 b4 7b 2c 3e 87 e7 9b bd 87 24 43 39 a4 d1 34 bc
       0.16844064 -0.0761252 0.00018610257 -0.01103631
0002d0 9c f1 03 be e5 4d cf bd 45 bc 45 3e d6 4a 37 3c
       -0.12885135 -0.10122279 0.193101 0.011187276
0002e0 33 f5 08 3e 4d 81 28 3e 86 ba 7e bd 0d 06 91 3c
       0.13374786 0.16455574 -0.0621896 0.01770308
0002f0 56 3e 23 3d c1 fd 18 3e c6 ba e8 bd dc 33 a4 3d
       0.03985437 0.1494055 -0.11363749 0.08017704
000300 db 23 62 bd aa 9e 11 3e 79 9c 29 3b 0e f5 07 be
       -0.055209976 0.14220682 0.0025880618 -0.13277075
000310 d3 24 f5 bd 78 44 39 3e 36 e7 a8 bd 8e 62 89 3d
       -0.11969914 0.18092525 -0.08247225 0.06708251
000320 2c e2 0c 3e 2d 41 0e 3e 55 16 3e bd fe ce 50 3e
       0.13758153 0.1389205 -0.046408016 0.20391461
000330 5e 49 c0 bd a3 6f 39 be 40 e9 16 3d a3 14 46 3e
       -0.09388994 -0.18108992 0.03684354 0.1934381
000340 0c 29 30 bd 89 4d ab 3d 64 7a 1e bc e9 a5 d4 3d
       -0.043007895 0.08364398 -0.009672735 0.10383207
000350 f1 fc 4f 3d f2 21 4e bd 28 a5 3d 3e 95 1c 22 bd
       0.050778333 -0.05032534 0.18520033 -0.03957804
000360 b3 63 43 3e b3 c0 50 bd 3d 86 11 bd b2 de 3c 3e
       0.19081001 -0.050965022 -0.03552841 0.18444327
000370 e1 8a 37 3d 4d 69 37 3d ee 22 25 3a 82 dc 4f be
       0.04481018 0.044778157 0.00062994554 -0.20298961
000380 89 b3 33 3e a4 60 04 3e 33 c9 bc bd b7 46 4b be
       0.17548956 0.1292749 -0.09218063 -0.19851194
000390 e5 9d ba bd c3 e6 52 3d 85 24 18 be cc 0b 15 3e
       -0.09112147 0.051489603 -0.14857681 0.14555281
0003a0 68 66 04 be ef 6e d5 3d 79 61 1f be bb c7 38 3e
       -0.1292969 0.104215495 -0.15564527 0.18044941
0003b0 1d 68 1e be ef 37 7e 3d 95 b1 29 be 0b 8c 2a 3e
       -0.15469404 0.06206506 -0.16571648 0.16654985
0003c0 a0 44 28 be 86 da 33 3d 26 12 1f 3e 7c 1e d9 3d
       -0.16432428 0.043909572 0.15534267 0.106015176
0003d0 36 6b 02 be 03 31 b8 3d 54 99 05 3e 0d 49 2e bd
       -0.1273621 0.08993723 0.13046771 -0.042550135
0003e0 bc 11 9b bd b5 cc 8a bb 7c a6 46 3e 2f 00 17 3e
       -0.07571742 -0.0042358288 0.19399446 0.14746164
0003f0 ec 89 b7 3d 4f ed 7b 3d 0c d0 30 be 54 eb 33 be
       0.089618534 0.061505612 -0.17266864 -0.1757024

linear2.bias f4 [69]
000000 48 95 96 bd e3 b6 c3 bd 22 85 0e 3e 25 64 78 3d
       -0.07352692 -0.09556367 0.13917974 0.06064238
000010 49 bb f1 bd f6 8d 87 bd 36 5c 33 be 39 6f 1b 3d
       -0.118033 -0.06618874 -0.17515644 0.037947867
000020 ae c5 39 be a0 58 3a be 93 7d 4d bd c9 64 bc bd
       -0.18141815 -0.1819787 -0.050168585 -0.09198911
000030 50 82 43 3e 50 26 a8 3d c1 0b fa 3c 95 49 5c 3c
       0.19092679 0.082104325 0.030523183 0.013445278
000040 be ab 1c be bb 1a 45 3e 63 a4 ba 3d 4c 31 c4 bd
       -0.1529989 0.19248478 0.091133855 -0.09579715
000050 49 fa 4c 3e 61 98 ad bd 13 e5 41 3e a8 87 37 3e
       0.20017351 -0.084763296 0.18935041 0.17922843
000060 0b 9f b0 3d 76 ab c1 3d 02 1f 02 3e 8d 6a 1e be
       0.08624085 0.09456532 0.12707141 -0.15470333
000070 d0 b1 01 bd c9 40 0f be 04 73 0c bd 5b 83 4b be
       -0.031663716 -0.13989557 -0.034289375 -0.19874327
000080 f3 09 1e be be 6a 10 3e c9 cd 9a 3c cc d7 15 be
       -0.15433483 0.14103219 0.018896954 -0.14633101
000090 5b 0e 1e bd bd 8e 39 be ac 15 36 be 43 0d c7 3d
       -0.03858791 -0.18120857 -0.17781705 0.09719326
0000a0 35 29 6e bd 4b a3 04 be 18 37 59 bb 33 c0 9a 3d
       -0.058144767 -0.12952916 -0.003314441 0.0755619
0000b0 92 28 fa bd 8a e9 1d bd 12 15 94 3c 10 2d 24 be
       -0.122147694 -0.0385528 0.018076453 -0.16032815
0000c0 57 fc 3e be 84 9a 37 3e 09 ea a6 3d 8f dd e1 bd
       -0.18650948 0.17930037 0.081501074 -0.11028587
0000d0 0b 66 fd bb fd bd 30 3e 1c 95 b3 bd ac b7 03 3e
       -0.0077331117 0.17259975 -0.08768675 0.12863034
0000e0 5d 9e 68 3a 76 c6 48 3b 77 77 24 3b 32 ce f9 3d
       0.00088736956 0.003063587 0.002509562 0.12197532
0000f0 fc b9 5a 3d 00 d0 80 3c 6a 6f e8 3d 49 53 b6 3d
       0.053400025 0.015724182 0.113493755 0.08902604
000100 21 c2 4d be 56 ee 1d 3e ac 20 d6 bd b1 f2 16 3d
       -0.20093586 0.15422949 -0.104554504 0.036852542
000110 b4 15 ec 3d
       0.11527577
